…
).to(device)\nvocoder = MelGANGenerator(mel_dim=mel_dim).to(device)\ndiscriminator = MelGANDiscriminator().to(device)\n\n# Print model summaries (optional)\nprint(encoder)\nprint(acoustic_gen)\nprint(vocoder)\nprint(discriminator)","metadata":{"trusted":true,"execution":{"iopub.status.busy":"2025-01-21T17:47:16.435329Z","iopub.execute_input":"2025-01-21T17:47:16.435733Z","iopub.status.idle":"2025-01-21T17:47:16.747601Z","shell.execute_reply.started":"2025-01-21T17:47:16.435702Z","shell.execute_reply":"2025-01-21T17:47:16.746329Z"}},"outputs":[{"name":"stdout","text":"TextEncoder(\n  (embedding): Embedding(256, 256, padding_idx=0)\n  (lstm): LSTM(256, 512, num_layers=2, batch_first=True, bidirectional=True)\n)\nAcousticGenerator(\n  (fc): Linear(in_features=1024, out_features=512, bias=True)\n  (lstm): LSTM(512, 512, num_layers=2, batch_first=True, bidirectional=True)\n  (fc_mel): Linear(in_features=1024, out_features=80, bias=True)\n)\nMelGANGenerator(\n  (generator): Sequential(\n    (0): ConvTranspose1d(80, 256, kernel_size=(16,), stride=(8,), padding=(4,))\n    (1): LeakyReLU(negative_slope=0.2, inplace=True)\n    (2): ConvTranspose1d(256, 256, kernel_size=(16,), stride=(8,), padding=(4,))\n    (3): LeakyReLU(negative_slope=0.2, inplace=True)\n    (4): ConvTranspose1d(256, 256, kernel_size=(4,), stride=(2,), padding=(1,))\n    (5): LeakyReLU(negative_slope=0.2, inplace=True)\n    (6): ConvTranspose1d(256, 256, kernel_size=(4,), stride=(2,), padding=(1,))\n    (7): LeakyReLU(negative_slope=0.2, inplace=True)\n    (8): Conv1d(256, 1, kernel_size=(7,), stride=(1,), padding=(3,))\n  )\n)\nMelGANDiscriminator(\n  (discriminator): Sequential(\n    (0): Conv1d(1, 16, kernel_size=(15,), stride=(1,), padding=(7,))\n    (1): LeakyReLU(negative_slope=0.2, inplace=True)\n    (2): Conv1d(16, 32, kernel_size=(15,), stride=(1,), padding=(7,))\n    (3): LeakyReLU(negative_slope=0.2, inplace=True)\n    (4): Conv1d(32, 64, kernel_size=(15,), stride=(1,), padding=(7,))\n    (5): LeakyReLU(negative_slope=0.2, inplace=True)\n    (6): Conv1d(64, 128, kernel_size=(15,), stride=(1,), padding=(7,))\n    (7): LeakyReLU(negative_slope=0.2, inplace=True)\n    (8): Conv1d(128, 256, kernel_size=(15,), stride=(1,), padding=(7,))\n    (9): LeakyReLU(negative_slope=0.2, inplace=True)\n    (10): Conv1d(256, 512, kernel_size=(15,), stride=(1,), padding=(7,))\n    (11): LeakyReLU(negative_slope=0.2, inplace=True)\n    (12): Flatten(start_dim=1, end_dim=-1)\n  )\n)\n","output_type":"stream"}],"execution_count":20},{"cell_type":"markdown","source":"4. Integrating GANs for Enhanced Speech Quality\nThe GAN framework consists of a Generator and a Discriminator that compete with each other. In this cont
…
